models/hey_tolkien.tflite (tflite, 62112 bytes, 18 tensors)

model_1/dense_1/MatMul i1 [1, 1088] scale=0.0022382212 zero_point=0
00000000: 26e4 15f2 09f4 1aef eff5 0eeb fee8 db25
00000010: 16fe dfd5 f90d 3c15 0601 0c18 e8cc ecfc
00000020: d9f5 0ebc d104 e601 cf2c 23de f8f6 e7e5
00000030: e4b6 17ef eee2 ecc3 06da 130f 14ee 17e1
00000040: 1e00 0abe 11f3 d41c 0bf5 ebd8 fce7 e020
00000050: 0607 e506 eaec 1fe7 0514 fae7 1cff cb07
00000060: 080c 18ba fce3 ca0d 1bf1 08c3 0fde 16ea
00000070: edde f8df e0e1 0fd1 06e9 25ec e8ff e402
00000080: 02ed f9f7 f1e3 e60c fbf5 dcd4 f6dd 1029
00000090: e101 0cf2 18f6 fed3 fb13 19e9 1bd9 05f0
000000a0: e60b efe3 f3e9 e027 15eb 16c5 f8f1 da08
000000b0: e3cd 08d3 f705 e0d3 14d3 f704 0a0b 1add
000000c0: d6d1 f7e8 edfe cd21 ffe2 e00f dcfd 1ad8
000000d0: 07f5 0108 0dda 15d9 0a0a f2ff 15d5 eaf7
000000e0: d619 1cf5 d00f fafd ebf2 08f6 f5e7 0aeb
000000f0: c6ed d2eb dcfc 21c2 080c efd2 f2ea 13e4
0.08505241 -0.06267019 0.047002647 -0.031335097 0.020143991 -0.026858654 0.05819375 -0.03804976
-0.03804976 -0.024620434 0.031335097 -0.047002647 -0.0044764425 -0.053717308 -0.08281419 0.08281419
0.04924087 -0.0044764425 -0.0738613 -0.096243516 -0.015667548 0.029096875 0.13429327 0.047002647
0.013429327 0.0022382212 0.026858654 0.053717308 -0.053717308 -0.1163875 -0.044764426 -0.008952885
-0.08729063 -0.024620434 0.031335097 -0.15219904 -0.1051964 0.008952885 -0.05819375 0.0022382212
-0.10967284 0.09848174 0.078337744 -0.07609952 -0.01790577 -0.022382213 -0.05595553 -0.060431972
-0.06267019 -0.16562837 0.05147909 -0.03804976 -0.040287983 -0.06714664 -0.044764426 -0.1365315
0.013429327 -0.08505241 0.042526204 0.03357332 0.044764426 -0.040287983 0.05147909 -0.06938486
0.06714664 0.0 0.022382213 -0.1477226 0.03804976 -0.029096875 -0.09848174 0.06267019
0.024620434 -0.024620434 -0.047002647 -0.08952885 -0.008952885 -0.05595553 -0.07162308 0.07162308
0.013429327 0.015667548 -0.060431972 0.013429327 -0.04924087 -0.044764426 0.06938486 -0.05595553
0.011191106 0.044764426 -0.013429327 -0.05595553 0.06267019 -0.0022382212 -0.11862572 0.015667548
0.01790577 0.026858654 0.053717308 -0.15667549 -0.008952885 -0.064908415 -0.120863944 0.029096875
0.060431972 -0.03357332 0.01790577 -0.1365315 0.03357332 -0.07609952 0.04924087 -0.04924087
-0.042526204 -0.07609952 -0.01790577 -0.0738613 -0.07162308 -0.06938486 0.03357332 -0.1051964
0.013429327 -0.05147909 0.08281419 -0.044764426 -0.053717308 -0.0022382212 -0.06267019 0.0044764425
0.0044764425 -0.042526204 -0.015667548 -0.020143991 -0.03357332 -0.064908415 -0.05819375 0.026858654
-0.011191106 -0.024620434 -0.080575965 -0.09848174 -0.022382213 -0.078337744 0.03581154 0.09176707
-0.06938486 0.0022382212 0.026858654 -0.031335097 0.053717308 -0.022382213 -0.0044764425 -0.10071996
-0.011191106 0.042526204 0.05595553 -0.05147909 0.060431972 -0.08729063 0.011191106 -0.03581154
-0.05819375 0.024620434 -0.03804976 -0.064908415 -0.029096875 -0.05147909 -0.07162308 0.08729063
0.047002647 -0.047002647 0.04924087 -0.13205506 -0.01790577 -0.03357332 -0.08505241 0.01790577
-0.064908415 -0.11414928 0.01790577 -0.10071996 -0.020143991 0.011191106 -0.07162308 -0.10071996
0.044764426 -0.10071996 -0.020143991 0.008952885 0.022382213 0.024620434 0.05819375 -0.078337744
-0.094005294 -0.1051964 -0.020143991 -0.053717308 -0.042526204 -0.0044764425 -0.11414928 0.0738613
-0.0022382212 -0.06714664 -0.07162308 0.03357332 -0.080575965 -0.0067146635 0.05819375 -0.08952885
0.015667548 -0.024620434 0.0022382212 0.01790577 0.029096875 -0.08505241 0.047002647 -0.08729063
0.022382213 0.022382213 -0.031335097 -0.0022382212 0.047002647 -0.096243516 -0.04924087 -0.020143991
-0.094005294 0.05595553 0.06267019 -0.024620434 -0.107434615 0.03357332 -0.013429327 -0.0067146635
-0.047002647 -0.031335097 0.01790577 -0.022382213 -0.024620434 -0.05595553 0.022382213 -0.047002647
-0.12981683 -0.042526204 -0.10295818 -0.047002647 -0.080575965 -0.008952885 0.0738613 -0.13876972
0.01790577 0.026858654 -0.03804976 -0.10295818 -0.031335097 -0.04924087 0.042526204 -0.06267019

model_1/conv2d_9/Conv2D i1 [64, 1, 1, 64]
00000000: 15d7 3535 701e dde7 37f0 c9d5 28c6 1a19
00000010: ddf5 41ff c871 9be5 2213 a8ff 449f 0d43
00000020: a16b 340d bfdf 4dce e9be 1af9 81d0 c7f3
00000030: 3c1b b815 20ef 3b32 d006 28c0 d3da 2944
00000040: fc59 4648 1585 9269 ec4b 36e0 271d 40b7
00000050: f15e 91fc b6c3 d012 d30d e2bf 28a0 81c5
00000060: aa66 e704 4682 748e 64e1 fdfb 8587 acce
00000070: 4360 c760 f94c ecb6 9b46 a65b 06dc c7f2
00000080: 2718 10dc d913 b026 18fd 25da 0de8 f0ce
00000090: fb33 08fa 0be4 28c6 f1f2 7b18 df11 f4f4
000000a0: cf1b c8d8 fada e5fe eebb 1f25 e7c8 e00e
000000b0: 252d b022 24e5 232d 8104 ed2e 16e1 d9df
000000c0: 3a1a 9b4d 630a 17fa 02f6 2c07 14de eec0
000000d0: 5bf1 1c24 2f47 d140 2d22 9f51 09db bec4
000000e0: f2ca 2c15 813c 42fe f93d 192e b5ea bfce
000000f0: 0701 27cf 4232 f6fc 0cb7 00d6 342f 0ef2
21 -41 53 53 112 30 -35 -25
55 -16 -55 -43 40 -58 26 25
-35 -11 65 -1 -56 113 -101 -27
34 19 -88 -1 68 -97 13 67
-95 107 52 13 -65 -33 77 -50
-23 -66 26 -7 -127 -48 -57 -13
60 27 -72 21 32 -17 59 50
-48 6 40 -64 -45 -38 41 68
-4 89 70 72 21 -123 -110 105
-20 75 54 -32 39 29 64 -73
-15 94 -111 -4 -74 -61 -48 18
-45 13 -30 -65 40 -96 -127 -59
-86 102 -25 4 70 -126 116 -114
100 -31 -3 -5 -123 -121 -84 -50
67 96 -57 96 -7 76 -20 -74
-101 70 -90 91 6 -36 -57 -14
39 24 16 -36 -39 19 -80 38
24 -3 37 -38 13 -24 -16 -50
-5 51 8 -6 11 -28 40 -58
-15 -14 123 24 -33 17 -12 -12
-49 27 -56 -40 -6 -38 -27 -2
-18 -69 31 37 -25 -56 -32 14
37 45 -80 34 36 -27 35 45
-127 4 -19 46 22 -31 -39 -33
58 26 -101 77 99 10 23 -6
2 -10 44 7 20 -34 -18 -64
91 -15 28 36 47 71 -47 64
45 34 -97 81 9 -37 -66 -60
-14 -54 44 21 -127 60 66 -2
-7 61 25 46 -75 -22 -65 -50
7 1 39 -49 66 50 -10 -4
12 -73 0 -42 52 47 14 -14

model_1/depthwise_conv2d_11/depthwise i1 [1, 23, 1, 64]
00000000: 68d1 99e7 d0ca 8119 e0eb ac7f d3b4 9281
00000010: 27ed c48e d9e2 2c08 7fce d5ff b47f 817f
00000020: 1666 d304 d70d f8ac fe26 3158 92d7 59bb
00000030: c6fd aab6 3881 0281 1681 e6c5 d17d aa26
00000040: 241a 812d c4da b969 f31f d12a e7a8 aba2
00000050: 3bc9 4220 cb06 2720 7083 ecd9 014c ae3d
00000060: f27f c4f1 f626 c3a9 4422 e96c 819c 56c2
00000070: 502e e0db 2d8a c7b9 14b3 c902 e452 b817
00000080: ffd6 c615 dfe9 b74b 32dd fd3a b701 2bc6
00000090: d9d1 e72e cc0d 4581 44e2 c31f cb36 a220
000000a0: 1b46 1049 de2d dce1 2c31 326a acce 03a1
000000b0: 5d22 da81 0dfe 72c0 3eb8 ec1e 0b15 c404
000000c0: ffce fd81 06e2 be59 3ae3 e729 fb81 330f
000000d0: d3c3 302a efe1 33bc 4995 d61e ac49 af1f
000000e0: ff3b cff8 30fc c1eb 0f17 0114 be00 4eb6
000000f0: 6cea f986 40c4 e9bb 5ab1 f937 1c2c a819
104 -47 -103 -25 -48 -54 -127 25
-32 -21 -84 127 -45 -76 -110 -127
39 -19 -60 -114 -39 -30 44 8
127 -50 -43 -1 -76 127 -127 127
22 102 -45 4 -41 13 -8 -84
-2 38 49 88 -110 -41 89 -69
-58 -3 -86 -74 56 -127 2 -127
22 -127 -26 -59 -47 125 -86 38
36 26 -127 45 -60 -38 -71 105
-13 31 -47 42 -25 -88 -85 -94
59 -55 66 32 -53 6 39 32
112 -125 -20 -39 1 76 -82 61
-14 127 -60 -15 -10 38 -61 -87
68 34 -23 108 -127 -100 86 -62
80 46 -32 -37 45 -118 -57 -71
20 -77 -55 2 -28 82 -72 23
-1 -42 -58 21 -33 -23 -73 75
50 -35 -3 58 -73 1 43 -58
-39 -47 -25 46 -52 13 69 -127
68 -30 -61 31 -53 54 -94 32
27 70 16 73 -34 45 -36 -31
44 49 50 106 -84 -50 3 -95
93 34 -38 -127 13 -2 114 -64
62 -72 -20 30 11 21 -60 4
-1 -50 -3 -127 6 -30 -66 89
58 -29 -25 41 -5 -127 51 15
-45 -61 48 42 -17 -31 51 -68
73 -107 -42 30 -84 73 -81 31
-1 59 -49 -8 48 -4 -63 -21
15 23 1 20 -66 0 78 -74
108 -22 -7 -122 64 -60 -23 -69
90 -79 -7 55 28 44 -88 25

model_1/conv2d_8/Conv2D i1 [64, 1, 1, 64]
00000000: ec39 e6e8 1433 0505 f454 ce3a feed 0ae1
00000010: eea2 df7e 39dd 1ee9 c432 471b af2f cc2c
00000020: 82de 130d db49 2226 3281 f03c 0cf7 db3f
00000030: a8cb f2df fbdc 1aa3 0d1a fa4f 2b12 efdf
00000040: 0602 fd60 d1d7 0f07 d333 02e1 44af 57b4
00000050: da81 5558 b02a 7a29 4532 c8f3 e8fb 0649
00000060: 2cf0 fcdc 0515 fa05 0713 cf34 1845 e9c3
00000070: 14cb 23f3 3ba9 0b10 23d7 2adc 0e0b 850d
00000080: 170d db6b 27ad df95 36de 1d0a 37ab 33d7
00000090: cfdf e2b9 f8da e240 c9a0 1de4 14cb edbb
000000a0: d94c 0e3a a816 3924 813e 043d 2d1b 0029
000000b0: 18e5 0b18 124e 0adb b9e4 1112 9cb2 3d73
000000c0: 490c 5bd8 1b2d 32af 33d9 09e4 ee1c d845
000000d0: e81b c0fc 1017 1fd8 644a 490c 350c 22e8
000000e0: f3ec 2b19 0107 f01e 0449 26fd 1ac1 ecd2
000000f0: 1ad9 0bdb f31a cad4 81d8 c510 c3da b6dc
-20 57 -26 -24 20 51 5 5
-12 84 -50 58 -2 -19 10 -31
-18 -94 -33 126 57 -35 30 -23
-60 50 71 27 -81 47 -52 44
-126 -34 19 13 -37 73 34 38
50 -127 -16 60 12 -9 -37 63
-88 -53 -14 -33 -5 -36 26 -93
13 26 -6 79 43 18 -17 -33
6 2 -3 96 -47 -41 15 7
-45 51 2 -31 68 -81 87 -76
-38 -127 85 88 -80 42 122 41
69 50 -56 -13 -24 -5 6 73
44 -16 -4 -36 5 21 -6 5
7 19 -49 52 24 69 -23 -61
20 -53 35 -13 59 -87 11 16
35 -41 42 -36 14 11 -123 13
23 13 -37 107 39 -83 -33 -107
54 -34 29 10 55 -85 51 -41
-49 -33 -30 -71 -8 -38 -30 64
-55 -96 29 -28 20 -53 -19 -69
-39 76 14 58 -88 22 57 36
-127 62 4 61 45 27 0 41
24 -27 11 24 18 78 10 -37
-71 -28 17 18 -100 -78 61 115
73 12 91 -40 27 45 50 -81
51 -39 9 -28 -18 28 -40 69
-24 27 -64 -4 16 23 31 -40
100 74 73 12 53 12 34 -24
-13 -20 43 25 1 7 -16 30
4 73 38 -3 26 -63 -20 -46
26 -39 11 -37 -13 26 -54 -44
-127 -40 -59 16 -61 -38 -74 -36

model_1/depthwise_conv2d_10/depthwise1 i1 [1, 15, 1, 32]
00000000: 88ba 6b20 7b50 e016 8145 4004 0b0c b0cc
00000010: fff0 611b a67f ce34 7f31 5481 69ae 9f66
00000020: aa93 087f 7fd0 113d 8e53 5f85 d851 d68f
00000030: 2406 2e4c d13a 0276 2312 7f03 2fd8 d07f
00000040: 4139 1513 1a81 dc1c b927 31f1 e0e5 2c1f
00000050: 3de9 d530 b3d9 d977 e711 3e12 2b93 f025
00000060: 7fd8 7feb 4ac6 0d35 e737 03a2 f227 004d
00000070: 493c f310 ae8d 3f2e 36c9 7331 651c 0f13
00000080: 3cd7 c01f 68e2 f937 bf3d 2c0c 76da 060f
00000090: 092f 5a10 06dc ba7f edc0 76bf 2c5f 26ff
000000a0: 686a 5240 1345 d42b d20f 3330 744d 4563
000000b0: 14f9 690c 4594 6506 cf16 34af f122 eaec
000000c0: 335c e8d3 0b27 5832 1829 312f 514c 0c0c
000000d0: fac5 7f17 d9b9 3cb5 f949 2514 4bbc 5edd
000000e0: 2f3d afe5 c62d f6ef e5c3 4c5e 4549 5fe2
000000f0: 29ea dffc 723c 0e1f 501f 291b 8144 46e2
-120 -70 107 32 123 80 -32 22
-127 69 64 4 11 12 -80 -52
-1 -16 97 27 -90 127 -50 52
127 49 84 -127 105 -82 -97 102
-86 -109 8 127 127 -48 17 61
-114 83 95 -123 -40 81 -42 -113
36 6 46 76 -47 58 2 118
35 18 127 3 47 -40 -48 127
65 57 21 19 26 -127 -36 28
-71 39 49 -15 -32 -27 44 31
61 -23 -43 48 -77 -39 -39 119
-25 17 62 18 43 -109 -16 37
127 -40 127 -21 74 -58 13 53
-25 55 3 -94 -14 39 0 77
73 60 -13 16 -82 -115 63 46
54 -55 115 49 101 28 15 19
60 -41 -64 31 104 -30 -7 55
-65 61 44 12 118 -38 6 15
9 47 90 16 6 -36 -70 127
-19 -64 118 -65 44 95 38 -1
104 106 82 64 19 69 -44 43
-46 15 51 48 116 77 69 99
20 -7 105 12 69 -108 101 6
-49 22 52 -81 -15 34 -22 -20
51 92 -24 -45 11 39 88 50
24 41 49 47 81 76 12 12
-6 -59 127 23 -39 -71 60 -75
-7 73 37 20 75 -68 94 -35
47 61 -81 -27 -58 45 -10 -17
-27 -61 76 94 69 73 95 -30
41 -22 -33 -4 114 60 14 31
80 31 41 27 -127 68 70 -30

model_1/depthwise_conv2d_9/depthwise i1 [1, 9, 1, 32]
00000000: 1921 2104 553e 7fce b4f9 cd9b 0460 ad2a
00000010: 055f a6c2 34bb 19fc 4ed7 add8 c56a 23f1
00000020: 212a 0943 53ee 02f8 c7b7 6bac 0361 815e
00000030: d522 db00 23e3 a21b c2d6 b281 e77f 32fc
00000040: b925 de5c 0881 14cb f4c1 48d5 fb7f b74d
00000050: b82a eefd 15e7 23b6 e048 a43d 0b25 d8f4
00000060: 0ad0 6783 10e8 4022 7f81 c7fe b9d7 25ff
00000070: f544 9621 132b 07c5 f0cb 7f75 564b cabf
00000080: c706 3cd6 070f ed0f 7fd4 a438 330b a6e2
00000090: d376 ac17 3147 1081 d1e1 550d 6b6b c806
000000a0: 9fb5 0441 4a69 b059 3943 1447 0ee3 1c27
000000b0: 383c 35d7 7f0f 94a9 fb81 6476 7feb a9e2
000000c0: 17de 14aa 7f55 937d 900e 991c 191f a981
000000d0: 7421 7f81 f457 81ea 7fe7 1a4f 5f1d 3a22
000000e0: 81a8 4d81 712c fd7f feeb 8157 d65c 9394
000000f0: 9c68 72a6 cf7f 8ae9 a1dd 9dcf 4275 7f7f
25 33 33 4 85 62 127 -50
-76 -7 -51 -101 4 96 -83 42
5 95 -90 -62 52 -69 25 -4
78 -41 -83 -40 -59 106 35 -15
33 42 9 67 83 -18 2 -8
-57 -73 107 -84 3 97 -127 94
-43 34 -37 0 35 -29 -94 27
-62 -42 -78 -127 -25 127 50 -4
-71 37 -34 92 8 -127 20 -53
-12 -63 72 -43 -5 127 -73 77
-72 42 -18 -3 21 -25 35 -74
-32 72 -92 61 11 37 -40 -12
10 -48 103 -125 16 -24 64 34
127 -127 -57 -2 -71 -41 37 -1
-11 68 -106 33 19 43 7 -59
-16 -53 127 117 86 75 -54 -65
-57 6 60 -42 7 15 -19 15
127 -44 -92 56 51 11 -90 -30
-45 118 -84 23 49 71 16 -127
-47 -31 85 13 107 107 -56 6
-97 -75 4 65 74 105 -80 89
57 67 20 71 14 -29 28 39
56 60 53 -41 127 15 -108 -87
-5 -127 100 118 127 -21 -87 -30
23 -34 20 -86 127 85 -109 125
-112 14 -103 28 25 31 -87 -127
116 33 127 -127 -12 87 -127 -22
127 -25 26 79 95 29 58 34
-127 -88 77 -127 113 44 -3 127
-2 -21 -127 87 -42 92 -109 -108
-100 104 114 -90 -49 127 -118 -23
-95 -35 -99 -49 66 117 127 127

model_1/conv2d_7/Conv2D i1 [64, 1, 1, 64]
00000000: 14ef 0e16 fab1 d429 dfc4 3ac7 103a b628
00000010: 3e40 daf9 f8e1 40ff e5a0 dad9 271d 17eb
00000020: c8bf 3555 81e6 9943 0948 0bff c7dc 42cb
00000030: 31b9 a8f0 52d3 acac 3d30 ecdc 44e7 4a19
00000040: b621 1afd 7f25 e9cf a7dd 8d23 2913 2318
00000050: 16f3 c654 2325 f7ef 3bfc 89be 1cd2 81c5
00000060: d4b2 cd22 2aca bfa5 1bec 1a3c 2ae1 db10
00000070: 4c38 0217 ecd6 f1d8 f204 d1fe 1bf2 0f46
00000080: e2a1 3bd8 e0fa e761 d019 f031 e4fe 01dc
00000090: 21b3 b8f8 1b2d d739 23fe e02c e63a 23ce
000000a0: f22a e0c4 1afd b110 14f6 f821 bfc0 4757
000000b0: 14b7 1381 0700 16cc 14c7 1a28 13ed 2dbb
000000c0: e53c 0701 d6df 1704 b849 8ed6 df81 26b5
000000d0: 8826 cb56 f42b 0125 1154 1901 a9c4 ac37
000000e0: 130c 04ae d6cb e6c3 d5d6 cd15 ca08 d8de
000000f0: 0135 5d34 e7e1 084d ee06 3c5f 4b42 f7ce
20 -17 14 22 -6 -79 -44 41
-33 -60 58 -57 16 58 -74 40
62 64 -38 -7 -8 -31 64 -1
-27 -96 -38 -39 39 29 23 -21
-56 -65 53 85 -127 -26 -103 67
9 72 11 -1 -57 -36 66 -53
49 -71 -88 -16 82 -45 -84 -84
61 48 -20 -36 68 -25 74 25
-74 33 26 -3 127 37 -23 -49
-89 -35 -115 35 41 19 35 24
22 -13 -58 84 35 37 -9 -17
59 -4 -119 -66 28 -46 -127 -59
-44 -78 -51 34 42 -54 -65 -91
27 -20 26 60 42 -31 -37 16
76 56 2 23 -20 -42 -15 -40
-14 4 -47 -2 27 -14 15 70
-30 -95 59 -40 -32 -6 -25 97
-48 25 -16 49 -28 -2 1 -36
33 -77 -72 -8 27 45 -41 57
35 -2 -32 44 -26 58 35 -50
-14 42 -32 -60 26 -3 -79 16
20 -10 -8 33 -65 -64 71 87
20 -73 19 -127 7 0 22 -52
20 -57 26 40 19 -19 45 -69
-27 60 7 1 -42 -33 23 4
-72 73 -114 -42 -33 -127 38 -75
-120 38 -53 86 -12 43 1 37
17 84 25 1 -87 -60 -84 55
19 12 4 -82 -42 -53 -26 -61
-43 -42 -51 21 -54 8 -40 -34
1 53 93 52 -25 -31 8 77
-18 6 60 95 75 66 -9 -50

model_1/depthwise_conv2d_8/depthwise i1 [1, 11, 1, 32]
00000000: ab42 a270 6b09 7f7f 57e6 1353 b5f9 347b
00000010: 237a 7f18 fc8f 19b3 0323 bed7 86e7 77a8
00000020: 4729 be01 7fdf 50fa f047 37db f481 c461
00000030: ab29 6bff 2981 f381 0610 edfd 0787 2296
00000040: f4f2 bc11 0f42 0a55 0938 0d17 c032 f052
00000050: 13f1 ef95 40c9 6cae 12f7 adee b71d 681b
00000060: 092f 3538 5b25 46a4 0cea 07ab 31e4 6a18
00000070: 81af bb54 f1a7 d535 1b6c 12b1 17c2 3ef3
00000080: 2397 817f c139 ae95 e1c1 09b7 c51f 5ebb
00000090: 0dad 1a7f 356d f1f8 fb7e 9e4a aed2 b198
000000a0: c9c6 a867 26d0 af8e 27f8 fcd6 f6f9 791d
000000b0: ff81 0659 2261 a7cd d5f0 0981 4581 4581
000000c0: 427f 0ba9 30c4 3910 3244 9681 3636 3aae
000000d0: 6f0c a51c 14fc 0d13 0e07 1fd0 c5e6 e2c9
000000e0: eb55 fdb5 0adb 43cc 7f81 eac0 7fd6 8178
000000f0: 04e1 9ea8 658e 1216 0681 e9d7 c3d3 812d
-85 66 -94 112 107 9 127 127
87 -26 19 83 -75 -7 52 123
35 122 127 24 -4 -113 25 -77
3 35 -66 -41 -122 -25 119 -88
71 41 -66 1 127 -33 80 -6
-16 71 55 -37 -12 -127 -60 97
-85 41 107 -1 41 -127 -13 -127
6 16 -19 -3 7 -121 34 -106
-12 -14 -68 17 15 66 10 85
9 56 13 23 -64 50 -16 82
19 -15 -17 -107 64 -55 108 -82
18 -9 -83 -18 -73 29 104 27
9 47 53 56 91 37 70 -92
12 -22 7 -85 49 -28 106 24
-127 -81 -69 84 -15 -89 -43 53
27 108 18 -79 23 -62 62 -13
35 -105 -127 127 -63 57 -82 -107
-31 -63 9 -73 -59 31 94 -69
13 -83 26 127 53 109 -15 -8
-5 126 -98 74 -82 -46 -79 -104
-55 -58 -88 103 38 -48 -81 -114
39 -8 -4 -42 -10 -7 121 29
-1 -127 6 89 34 97 -89 -51
-43 -16 9 -127 69 -127 69 -127
66 127 11 -87 48 -60 57 16
50 68 -106 -127 54 54 58 -82
111 12 -91 28 20 -4 13 19
14 7 31 -48 -59 -26 -30 -55
-21 85 -3 -75 10 -37 67 -52
127 -127 -22 -64 127 -42 -127 120
4 -31 -98 -88 101 -114 18 22
6 -127 -23 -41 -61 -45 -127 45

model_1/depthwise_conv2d_7/depthwise i1 [1, 7, 1, 32]
00000000: 4109 b43e e9ac bb07 19d2 8881 410e cbc8
00000010: 6db8 1311 3c75 360f 7fcc e390 217f f640
00000020: 7f7f 81ac 3652 ea1a 582d 047c 25f5 ee91
00000030: d427 817a 5513 bdf4 ca03 6c46 0f1d bef0
00000040: d429 3ff5 5a73 0e09 bf4c 81cd e62c 12e8
00000050: c713 247f 1e0e a256 63bc 7f44 f865 73a3
00000060: 5a71 5b50 2ffc fcca 28b6 8e04 81bb 741a
00000070: 50e5 016d d675 eb7f 78a2 87c5 7f6b c6b2
00000080: ab35 7b81 e5ec e7dd f3cb b719 9e1a 1513
00000090: 817f 68da ba67 fde2 fedd db7f 0d12 7617
000000a0: 5b5b 2632 8103 3b90 7fbe 439a c817 f821
000000b0: 05df 6552 ec81 5fb8 8e7f 2025 3bdd fe98
000000c0: 3fd5 26d6 ca7f 7f81 bf7f da37 527f 7f7f
000000d0: c76b 74c3 81da 8198 1cc3 ccad 637d 8181
65 9 -76 62 -23 -84 -69 7
25 -46 -120 -127 65 14 -53 -56
109 -72 19 17 60 117 54 15
127 -52 -29 -112 33 127 -10 64
127 127 -127 -84 54 82 -22 26
88 45 4 124 37 -11 -18 -111
-44 39 -127 122 85 19 -67 -12
-54 3 108 70 15 29 -66 -16
-44 41 63 -11 90 115 14 9
-65 76 -127 -51 -26 44 18 -24
-57 19 36 127 30 14 -94 86
99 -68 127 68 -8 101 115 -93
90 113 91 80 47 -4 -4 -54
40 -74 -114 4 -127 -69 116 26
80 -27 1 109 -42 117 -21 127
120 -94 -121 -59 127 107 -58 -78
-85 53 123 -127 -27 -20 -25 -35
-13 -53 -73 25 -98 26 21 19
-127 127 104 -38 -70 103 -3 -30
-2 -35 -37 127 13 18 118 23
91 91 38 50 -127 3 59 -112
127 -66 67 -102 -56 23 -8 33
5 -33 101 82 -20 -127 95 -72
-114 127 32 37 59 -35 -2 -104
63 -43 38 -42 -54 127 127 -127
-65 127 -38 55 82 127 127 127
-57 107 116 -61 -127 -38 -127 -104
28 -61 -52 -83 99 125 -127 -127

model_1/conv2d_6/Conv2D i1 [64, 1, 1, 32]
00000000: bda7 817d 57d1 0cc9 f59d cfd3 0344 ee45
00000010: 9582 36f1 2d5c acaf bfad 5dea 39c0 c987
00000020: 2d09 4206 27f5 d57f 0660 21c1 e90e a2fc
00000030: 3be5 c416 d5f1 f90c fe51 0938 cdee 4af5
00000040: da44 a7b4 abef 4632 c7c5 1209 07c9 1947
00000050: 3f8d dcce a7e2 7f26 e8da 61e3 39da c5a1
00000060: ee9b 2b4e b1e6 e0c1 fb08 7f3c c526 0f28
00000070: d38f cae6 f9ac 003f 942e 35a9 e3c8 53dd
00000080: dfc3 f83f c6c9 30fd 0cdc 054f 3e47 f67f
00000090: 16b5 45e5 4b42 40ee bac3 e201 22db 29c9
000000a0: 3bf6 dee8 cb25 d918 e2d5 2d33 b926 0d0e
000000b0: c67f 0021 bbb1 ff3b 1f0b ce44 0508 2147
000000c0: 39cf ecec 2c06 18f0 111c e431 3ae7 d9f4
000000d0: cae1 52c0 2ce7 09e8 8123 08eb f542 f2db
000000e0: 38bc 0c51 5c0d 313a 2871 12e4 f367 34f1
000000f0: f8fd 0481 143c 05f7 d09f 56d1 18c6 4ed1
-67 -89 -127 125 87 -47 12 -55
-11 -99 -49 -45 3 68 -18 69
-107 -126 54 -15 45 92 -84 -81
-65 -83 93 -22 57 -64 -55 -121
45 9 66 6 39 -11 -43 127
6 96 33 -63 -23 14 -94 -4
59 -27 -60 22 -43 -15 -7 12
-2 81 9 56 -51 -18 74 -11
-38 68 -89 -76 -85 -17 70 50
-57 -59 18 9 7 -55 25 71
63 -115 -36 -50 -89 -30 127 38
-24 -38 97 -29 57 -38 -59 -95
-18 -101 43 78 -79 -26 -32 -63
-5 8 127 60 -59 38 15 40
-45 -113 -54 -26 -7 -84 0 63
-108 46 53 -87 -29 -56 83 -35
-33 -61 -8 63 -58 -55 48 -3
12 -36 5 79 62 71 -10 127
22 -75 69 -27 75 66 64 -18
-70 -61 -30 1 34 -37 41 -55
59 -10 -34 -24 -53 37 -39 24
-30 -43 45 51 -71 38 13 14
-58 127 0 33 -69 -79 -1 59
31 11 -50 68 5 8 33 71
57 -49 -20 -20 44 6 24 -16
17 28 -28 49 58 -25 -39 -12
-54 -31 82 -64 44 -25 9 -24
-127 35 8 -21 -11 66 -14 -37
56 -68 12 81 92 13 49 58
40 113 18 -28 -13 103 52 -15
-8 -3 4 -127 20 60 5 -9
-48 -97 86 -47 24 -58 78 -47

model_1/depthwise_conv2d_6/depthwise i1 [1, 5, 1, 32]
00000000: 0494 154b daa6 81d2 fdfa 1539 305e 7942
00000010: 7fbd 09ab df2a 65e9 0f81 6ce2 9d81 d62e
00000020: d118 0dcb 7f2e 03fe 05d6 34fa 81d5 7f69
00000030: c164 a4c4 7f3e b473 64eb 814a a00f b5e3
00000040: 817f 2081 5855 1a81 9ffd f4db d981 3b8b
00000050: c5b2 d440 be81 e2bd 7f35 1217 67c2 8181
00000060: fe31 59ee 0881 ac57 7f81 c236 efa5 336f
00000070: b006 7f7f 63e0 c14f 9969 4d7f 7f56 38b0
00000080: 0302 8143 d293 e281 d1ea 817f 670a 947f
00000090: 8a7f aa4c 0f30 7f7f 87b0 d464 d225 03c1
4 -108 21 75 -38 -90 -127 -46
-3 -6 21 57 48 94 121 66
127 -67 9 -85 -33 42 101 -23
15 -127 108 -30 -99 -127 -42 46
-47 24 13 -53 127 46 3 -2
5 -42 52 -6 -127 -43 127 105
-63 100 -92 -60 127 62 -76 115
100 -21 -127 74 -96 15 -75 -29
-127 127 32 -127 88 85 26 -127
-97 -3 -12 -37 -39 -127 59 -117
-59 -78 -44 64 -66 -127 -30 -67
127 53 18 23 103 -62 -127 -127
-2 49 89 -18 8 -127 -84 87
127 -127 -62 54 -17 -91 51 111
-80 6 127 127 99 -32 -63 79
-103 105 77 127 127 86 56 -80
3 2 -127 67 -46 -109 -30 -127
-47 -22 -127 127 103 10 -108 127
-118 127 -86 76 15 48 127 127
-121 -80 -44 100 -46 37 3 -63

model_1/stream_6/conv2d_5/Conv2D i1 [32, 5, 1, 40]
00000000: 1dec c6eb 1aeb 35f6 0bf2 e53e 00d0 e6ee
00000010: cd9b d5f7 ea21 02d6 fdf7 e4d0 ec23 2208
00000020: e95b 4a59 453f 2450 70c2 c49e e9e0 c50d
00000030: ceef dcec 0306 e4ee 01b6 131b f7da fbce
00000040: ec2d ccc7 faf3 0e27 07fe 0fec 000d d730
00000050: 32e7 bfbf f219 def1 fd14 bdde 11f1 d91a
00000060: 081c ec4c 29df f32c 1a3d 0602 1dd2 3d00
00000070: ece3 57fb db23 1617 38f9 eda7 11f1 130c
00000080: dc27 daf6 c9f0 c424 2de7 2c12 35f1 1c1d
00000090: 380c 0bf2 11f2 3513 eee5 cdc3 b805 d7c1
000000a0: 330d fc09 ebff eae7 a522 e9ac fe17 1def
000000b0: 10f9 0fdf 11cf 3d1e fb21 db27 dd13 d9c9
000000c0: cbb5 81aa a7a5 8ef2 1a36 f0de 11aa f403
000000d0: 29c2 bbcc 59a1 a81e b0c8 9adc 0894 3767
000000e0: db98 f3e7 09cd 8bd9 ecc4 f1ec 1520 f0c9
000000f0: 90e3 19af abf8 151b b8c1 153b 2497 8ec5
29 -20 -58 -21 26 -21 53 -10
11 -14 -27 62 0 -48 -26 -18
-51 -101 -43 -9 -22 33 2 -42
-3 -9 -28 -48 -20 35 34 8
-23 91 74 89 69 63 36 80
112 -62 -60 -98 -23 -32 -59 13
-50 -17 -36 -20 3 6 -28 -18
1 -74 19 27 -9 -38 -5 -50
-20 45 -52 -57 -6 -13 14 39
7 -2 15 -20 0 13 -41 48
50 -25 -65 -65 -14 25 -34 -15
-3 20 -67 -34 17 -15 -39 26
8 28 -20 76 41 -33 -13 44
26 61 6 2 29 -46 61 0
-20 -29 87 -5 -37 35 22 23
56 -7 -19 -89 17 -15 19 12
-36 39 -38 -10 -55 -16 -60 36
45 -25 44 18 53 -15 28 29
56 12 11 -14 17 -14 53 19
-18 -27 -51 -61 -72 5 -41 -63
51 13 -4 9 -21 -1 -22 -25
-91 34 -23 -84 -2 23 29 -17
16 -7 15 -33 17 -49 61 30
-5 33 -37 39 -35 19 -39 -55
-53 -75 -127 -86 -89 -91 -114 -14
26 54 -16 -34 17 -86 -12 3
41 -62 -69 -52 89 -95 -88 30
-80 -56 -102 -36 8 -108 55 103
-37 -104 -13 -25 9 -51 -117 -39
-20 -60 -15 -20 21 32 -16 -55
-112 -29 25 -81 -85 -8 21 27
-72 -63 21 59 36 -105 -114 -59

tfl.pseudo_qconst i1 [1, 14, 1, 64] scale=0.04492857 zero_point=-128
00000000: 8080 8080 8080 8080 8080 8080 8080 8080
00000010: 8080 8080 8080 8080 8080 8080 8080 8080
00000020: 8080 8080 8080 8080 8080 8080 8080 8080
00000030: 8080 8080 8080 8080 8080 8080 8080 8080
00000040: 8080 8080 8080 8080 8080 8080 8080 8080
00000050: 8080 8080 8080 8080 8080 8080 8080 8080
00000060: 8080 8080 8080 8080 8080 8080 8080 8080
00000070: 8080 8080 8080 8080 8080 8080 8080 8080
00000080: 8080 8080 8080 8080 8080 8080 8080 8080
00000090: 8080 8080 8080 8080 8080 8080 8080 8080
000000a0: 8080 8080 8080 8080 8080 8080 8080 8080
000000b0: 8080 8080 8080 8080 8080 8080 8080 8080
000000c0: 8080 8080 8080 8080 8080 8080 8080 8080
000000d0: 8080 8080 8080 8080 8080 8080 8080 8080
000000e0: 8080 8080 8080 8080 8080 8080 8080 8080
000000f0: 8080 8080 8080 8080 8080 8080 8080 8080
0.0 0.0 0.0 0.0 0.0 0.0 0.0 0.0
0.0 0.0 0.0 0.0 0.0 0.0 0.0 0.0
0.0 0.0 0.0 0.0 0.0 0.0 0.0 0.0
0.0 0.0 0.0 0.0 0.0 0.0 0.0 0.0
0.0 0.0 0.0 0.0 0.0 0.0 0.0 0.0
0.0 0.0 0.0 0.0 0.0 0.0 0.0 0.0
0.0 0.0 0.0 0.0 0.0 0.0 0.0 0.0
0.0 0.0 0.0 0.0 0.0 0.0 0.0 0.0
0.0 0.0 0.0 0.0 0.0 0.0 0.0 0.0
0.0 0.0 0.0 0.0 0.0 0.0 0.0 0.0
0.0 0.0 0.0 0.0 0.0 0.0 0.0 0.0
0.0 0.0 0.0 0.0 0.0 0.0 0.0 0.0
0.0 0.0 0.0 0.0 0.0 0.0 0.0 0.0
0.0 0.0 0.0 0.0 0.0 0.0 0.0 0.0
0.0 0.0 0.0 0.0 0.0 0.0 0.0 0.0
0.0 0.0 0.0 0.0 0.0 0.0 0.0 0.0
0.0 0.0 0.0 0.0 0.0 0.0 0.0 0.0
0.0 0.0 0.0 0.0 0.0 0.0 0.0 0.0
0.0 0.0 0.0 0.0 0.0 0.0 0.0 0.0
0.0 0.0 0.0 0.0 0.0 0.0 0.0 0.0
0.0 0.0 0.0 0.0 0.0 0.0 0.0 0.0
0.0 0.0 0.0 0.0 0.0 0.0 0.0 0.0
0.0 0.0 0.0 0.0 0.0 0.0 0.0 0.0
0.0 0.0 0.0 0.0 0.0 0.0 0.0 0.0
0.0 0.0 0.0 0.0 0.0 0.0 0.0 0.0
0.0 0.0 0.0 0.0 0.0 0.0 0.0 0.0
0.0 0.0 0.0 0.0 0.0 0.0 0.0 0.0
0.0 0.0 0.0 0.0 0.0 0.0 0.0 0.0
0.0 0.0 0.0 0.0 0.0 0.0 0.0 0.0
0.0 0.0 0.0 0.0 0.0 0.0 0.0 0.0
0.0 0.0 0.0 0.0 0.0 0.0 0.0 0.0
0.0 0.0 0.0 0.0 0.0 0.0 0.0 0.0

tfl.pseudo_qconst1 i1 [1, 10, 1, 64] scale=0.054284606 zero_point=-128
00000000: 8080 8080 8080 8080 8080 8080 8080 8080
00000010: 8080 8080 8080 8080 8080 8080 8080 8080
00000020: 8080 8080 8080 8080 8080 8080 8080 8080
00000030: 8080 8080 8080 8080 8080 8080 8080 8080
00000040: 8080 8080 8080 8080 8080 8080 8080 8080
00000050: 8080 8080 8080 8080 8080 8080 8080 8080
00000060: 8080 8080 8080 8080 8080 8080 8080 8080
00000070: 8080 8080 8080 8080 8080 8080 8080 8080
00000080: 8080 8080 8080 8080 8080 8080 8080 8080
00000090: 8080 8080 8080 8080 8080 8080 8080 8080
000000a0: 8080 8080 8080 8080 8080 8080 8080 8080
000000b0: 8080 8080 8080 8080 8080 8080 8080 8080
000000c0: 8080 8080 8080 8080 8080 8080 8080 8080
000000d0: 8080 8080 8080 8080 8080 8080 8080 8080
000000e0: 8080 8080 8080 8080 8080 8080 8080 8080
000000f0: 8080 8080 8080 8080 8080 8080 8080 8080
0.0 0.0 0.0 0.0 0.0 0.0 0.0 0.0
0.0 0.0 0.0 0.0 0.0 0.0 0.0 0.0
0.0 0.0 0.0 0.0 0.0 0.0 0.0 0.0
0.0 0.0 0.0 0.0 0.0 0.0 0.0 0.0
0.0 0.0 0.0 0.0 0.0 0.0 0.0 0.0
0.0 0.0 0.0 0.0 0.0 0.0 0.0 0.0
0.0 0.0 0.0 0.0 0.0 0.0 0.0 0.0
0.0 0.0 0.0 0.0 0.0 0.0 0.0 0.0
0.0 0.0 0.0 0.0 0.0 0.0 0.0 0.0
0.0 0.0 0.0 0.0 0.0 0.0 0.0 0.0
0.0 0.0 0.0 0.0 0.0 0.0 0.0 0.0
0.0 0.0 0.0 0.0 0.0 0.0 0.0 0.0
0.0 0.0 0.0 0.0 0.0 0.0 0.0 0.0
0.0 0.0 0.0 0.0 0.0 0.0 0.0 0.0
0.0 0.0 0.0 0.0 0.0 0.0 0.0 0.0
0.0 0.0 0.0 0.0 0.0 0.0 0.0 0.0
0.0 0.0 0.0 0.0 0.0 0.0 0.0 0.0
0.0 0.0 0.0 0.0 0.0 0.0 0.0 0.0
0.0 0.0 0.0 0.0 0.0 0.0 0.0 0.0
0.0 0.0 0.0 0.0 0.0 0.0 0.0 0.0
0.0 0.0 0.0 0.0 0.0 0.0 0.0 0.0
0.0 0.0 0.0 0.0 0.0 0.0 0.0 0.0
0.0 0.0 0.0 0.0 0.0 0.0 0.0 0.0
0.0 0.0 0.0 0.0 0.0 0.0 0.0 0.0
0.0 0.0 0.0 0.0 0.0 0.0 0.0 0.0
0.0 0.0 0.0 0.0 0.0 0.0 0.0 0.0
0.0 0.0 0.0 0.0 0.0 0.0 0.0 0.0
0.0 0.0 0.0 0.0 0.0 0.0 0.0 0.0
0.0 0.0 0.0 0.0 0.0 0.0 0.0 0.0
0.0 0.0 0.0 0.0 0.0 0.0 0.0 0.0
0.0 0.0 0.0 0.0 0.0 0.0 0.0 0.0
0.0 0.0 0.0 0.0 0.0 0.0 0.0 0.0

tfl.pseudo_qconst2 i1 [1, 4, 1, 32] scale=0.67620826 zero_point=-128
00000000: 8080 8080 8080 8080 8080 8080 8080 8080
00000010: 8080 8080 8080 8080 8080 8080 8080 8080
00000020: 8080 8080 8080 8080 8080 8080 8080 8080
00000030: 8080 8080 8080 8080 8080 8080 8080 8080
00000040: 8080 8080 8080 8080 8080 8080 8080 8080
00000050: 8080 8080 8080 8080 8080 8080 8080 8080
00000060: 8080 8080 8080 8080 8080 8080 8080 8080
00000070: 8080 8080 8080 8080 8080 8080 8080 8080
0.0 0.0 0.0 0.0 0.0 0.0 0.0 0.0
0.0 0.0 0.0 0.0 0.0 0.0 0.0 0.0
0.0 0.0 0.0 0.0 0.0 0.0 0.0 0.0
0.0 0.0 0.0 0.0 0.0 0.0 0.0 0.0
0.0 0.0 0.0 0.0 0.0 0.0 0.0 0.0
0.0 0.0 0.0 0.0 0.0 0.0 0.0 0.0
0.0 0.0 0.0 0.0 0.0 0.0 0.0 0.0
0.0 0.0 0.0 0.0 0.0 0.0 0.0 0.0
0.0 0.0 0.0 0.0 0.0 0.0 0.0 0.0
0.0 0.0 0.0 0.0 0.0 0.0 0.0 0.0
0.0 0.0 0.0 0.0 0.0 0.0 0.0 0.0
0.0 0.0 0.0 0.0 0.0 0.0 0.0 0.0
0.0 0.0 0.0 0.0 0.0 0.0 0.0 0.0
0.0 0.0 0.0 0.0 0.0 0.0 0.0 0.0
0.0 0.0 0.0 0.0 0.0 0.0 0.0 0.0
0.0 0.0 0.0 0.0 0.0 0.0 0.0 0.0

tfl.pseudo_qconst3 i1 [1, 2, 1, 40] scale=0.101960786 zero_point=-128
00000000: 8080 8080 8080 8080 8080 8080 8080 8080
00000010: 8080 8080 8080 8080 8080 8080 8080 8080
00000020: 8080 8080 8080 8080 8080 8080 8080 8080
00000030: 8080 8080 8080 8080 8080 8080 8080 8080
00000040: 8080 8080 8080 8080 8080 8080 8080 8080
0.0 0.0 0.0 0.0 0.0 0.0 0.0 0.0
0.0 0.0 0.0 0.0 0.0 0.0 0.0 0.0
0.0 0.0 0.0 0.0 0.0 0.0 0.0 0.0
0.0 0.0 0.0 0.0 0.0 0.0 0.0 0.0
0.0 0.0 0.0 0.0 0.0 0.0 0.0 0.0
0.0 0.0 0.0 0.0 0.0 0.0 0.0 0.0
0.0 0.0 0.0 0.0 0.0 0.0 0.0 0.0
0.0 0.0 0.0 0.0 0.0 0.0 0.0 0.0
0.0 0.0 0.0 0.0 0.0 0.0 0.0 0.0
0.0 0.0 0.0 0.0 0.0 0.0 0.0 0.0

tfl.pseudo_qconst4 i1 [1, 16, 1, 64] scale=0.023532478 zero_point=-128
00000000: 8080 8080 8080 8080 8080 8080 8080 8080
00000010: 8080 8080 8080 8080 8080 8080 8080 8080
00000020: 8080 8080 8080 8080 8080 8080 8080 8080
00000030: 8080 8080 8080 8080 8080 8080 8080 8080
00000040: 8080 8080 8080 8080 8080 8080 8080 8080
00000050: 8080 8080 8080 8080 8080 8080 8080 8080
00000060: 8080 8080 8080 8080 8080 8080 8080 8080
00000070: 8080 8080 8080 8080 8080 8080 8080 8080
00000080: 8080 8080 8080 8080 8080 8080 8080 8080
00000090: 8080 8080 8080 8080 8080 8080 8080 8080
000000a0: 8080 8080 8080 8080 8080 8080 8080 8080
000000b0: 8080 8080 8080 8080 8080 8080 8080 8080
000000c0: 8080 8080 8080 8080 8080 8080 8080 8080
000000d0: 8080 8080 8080 8080 8080 8080 8080 8080
000000e0: 8080 8080 8080 8080 8080 8080 8080 8080
000000f0: 8080 8080 8080 8080 8080 8080 8080 8080
0.0 0.0 0.0 0.0 0.0 0.0 0.0 0.0
0.0 0.0 0.0 0.0 0.0 0.0 0.0 0.0
0.0 0.0 0.0 0.0 0.0 0.0 0.0 0.0
0.0 0.0 0.0 0.0 0.0 0.0 0.0 0.0
0.0 0.0 0.0 0.0 0.0 0.0 0.0 0.0
0.0 0.0 0.0 0.0 0.0 0.0 0.0 0.0
0.0 0.0 0.0 0.0 0.0 0.0 0.0 0.0
0.0 0.0 0.0 0.0 0.0 0.0 0.0 0.0
0.0 0.0 0.0 0.0 0.0 0.0 0.0 0.0
0.0 0.0 0.0 0.0 0.0 0.0 0.0 0.0
0.0 0.0 0.0 0.0 0.0 0.0 0.0 0.0
0.0 0.0 0.0 0.0 0.0 0.0 0.0 0.0
0.0 0.0 0.0 0.0 0.0 0.0 0.0 0.0
0.0 0.0 0.0 0.0 0.0 0.0 0.0 0.0
0.0 0.0 0.0 0.0 0.0 0.0 0.0 0.0
0.0 0.0 0.0 0.0 0.0 0.0 0.0 0.0
0.0 0.0 0.0 0.0 0.0 0.0 0.0 0.0
0.0 0.0 0.0 0.0 0.0 0.0 0.0 0.0
0.0 0.0 0.0 0.0 0.0 0.0 0.0 0.0
0.0 0.0 0.0 0.0 0.0 0.0 0.0 0.0
0.0 0.0 0.0 0.0 0.0 0.0 0.0 0.0
0.0 0.0 0.0 0.0 0.0 0.0 0.0 0.0
0.0 0.0 0.0 0.0 0.0 0.0 0.0 0.0
0.0 0.0 0.0 0.0 0.0 0.0 0.0 0.0
0.0 0.0 0.0 0.0 0.0 0.0 0.0 0.0
0.0 0.0 0.0 0.0 0.0 0.0 0.0 0.0
0.0 0.0 0.0 0.0 0.0 0.0 0.0 0.0
0.0 0.0 0.0 0.0 0.0 0.0 0.0 0.0
0.0 0.0 0.0 0.0 0.0 0.0 0.0 0.0
0.0 0.0 0.0 0.0 0.0 0.0 0.0 0.0
0.0 0.0 0.0 0.0 0.0 0.0 0.0 0.0
0.0 0.0 0.0 0.0 0.0 0.0 0.0 0.0

tfl.pseudo_qconst5 i1 [1, 22, 1, 64] scale=0.031202422 zero_point=-128
00000000: 8080 8080 8080 8080 8080 8080 8080 8080
00000010: 8080 8080 8080 8080 8080 8080 8080 8080
00000020: 8080 8080 8080 8080 8080 8080 8080 8080
00000030: 8080 8080 8080 8080 8080 8080 8080 8080
00000040: 8080 8080 8080 8080 8080 8080 8080 8080
00000050: 8080 8080 8080 8080 8080 8080 8080 8080
00000060: 8080 8080 8080 8080 8080 8080 8080 8080
00000070: 8080 8080 8080 8080 8080 8080 8080 8080
00000080: 8080 8080 8080 8080 8080 8080 8080 8080
00000090: 8080 8080 8080 8080 8080 8080 8080 8080
000000a0: 8080 8080 8080 8080 8080 8080 8080 8080
000000b0: 8080 8080 8080 8080 8080 8080 8080 8080
000000c0: 8080 8080 8080 8080 8080 8080 8080 8080
000000d0: 8080 8080 8080 8080 8080 8080 8080 8080
000000e0: 8080 8080 8080 8080 8080 8080 8080 8080
000000f0: 8080 8080 8080 8080 8080 8080 8080 8080
0.0 0.0 0.0 0.0 0.0 0.0 0.0 0.0
0.0 0.0 0.0 0.0 0.0 0.0 0.0 0.0
0.0 0.0 0.0 0.0 0.0 0.0 0.0 0.0
0.0 0.0 0.0 0.0 0.0 0.0 0.0 0.0
0.0 0.0 0.0 0.0 0.0 0.0 0.0 0.0
0.0 0.0 0.0 0.0 0.0 0.0 0.0 0.0
0.0 0.0 0.0 0.0 0.0 0.0 0.0 0.0
0.0 0.0 0.0 0.0 0.0 0.0 0.0 0.0
0.0 0.0 0.0 0.0 0.0 0.0 0.0 0.0
0.0 0.0 0.0 0.0 0.0 0.0 0.0 0.0
0.0 0.0 0.0 0.0 0.0 0.0 0.0 0.0
0.0 0.0 0.0 0.0 0.0 0.0 0.0 0.0
0.0 0.0 0.0 0.0 0.0 0.0 0.0 0.0
0.0 0.0 0.0 0.0 0.0 0.0 0.0 0.0
0.0 0.0 0.0 0.0 0.0 0.0 0.0 0.0
0.0 0.0 0.0 0.0 0.0 0.0 0.0 0.0
0.0 0.0 0.0 0.0 0.0 0.0 0.0 0.0
0.0 0.0 0.0 0.0 0.0 0.0 0.0 0.0
0.0 0.0 0.0 0.0 0.0 0.0 0.0 0.0
0.0 0.0 0.0 0.0 0.0 0.0 0.0 0.0
0.0 0.0 0.0 0.0 0.0 0.0 0.0 0.0
0.0 0.0 0.0 0.0 0.0 0.0 0.0 0.0
0.0 0.0 0.0 0.0 0.0 0.0 0.0 0.0
0.0 0.0 0.0 0.0 0.0 0.0 0.0 0.0
0.0 0.0 0.0 0.0 0.0 0.0 0.0 0.0
0.0 0.0 0.0 0.0 0.0 0.0 0.0 0.0
0.0 0.0 0.0 0.0 0.0 0.0 0.0 0.0
0.0 0.0 0.0 0.0 0.0 0.0 0.0 0.0
0.0 0.0 0.0 0.0 0.0 0.0 0.0 0.0
0.0 0.0 0.0 0.0 0.0 0.0 0.0 0.0
0.0 0.0 0.0 0.0 0.0 0.0 0.0 0.0
0.0 0.0 0.0 0.0 0.0 0.0 0.0 0.0
